…
iam tulip', 'silverbush', 'snapdragon', 'spear thistle', 'spring crocus', 'stemless gentian', 'sunflower', 'sweet pea', 'sweet william', 'sword lily', 'thorn apple', 'tiger lily', 'toad lily', 'tree mallow', 'tree poppy', 'trumpet creeper', 'wallflower', 'water lily', 'watercress', 'wild geranium', 'wild pansy', 'wild rose', 'windflower', 'yellow iris']
Model: "sequential"
_________________________________________________________________
Layer (type)                 Output Shape              Param #
=================================================================
rescaling (Rescaling)        (None, 224, 224, 3)       0
_________________________________________________________________
conv2d (Conv2D)              (None, 222, 222, 32)      896
_________________________________________________________________
max_pooling2d (MaxPooling2D) (None, 111, 111, 32)      0
_________________________________________________________________
conv2d_1 (Conv2D)            (None, 109, 109, 64)      18496
_________________________________________________________________
max_pooling2d_1 (MaxPooling2 (None, 54, 54, 64)        0
_________________________________________________________________
flatten (Flatten)            (None, 186624)            0
_________________________________________________________________
dense (Dense)                (None, 128)               23888000
_________________________________________________________________
dense_1 (Dense)              (None, 104)               13416
=================================================================
Total params: 23,920,808
Trainable params: 23,920,808
Non-trainable params: 0
_________________________________________________________________
Epoch 1/30
826/826 [==============================] - 299s 363ms/step - loss: 3.8314 - accuracy: 0.1201 - val_loss: 3.4363 - val_accuracy: 0.1625
Epoch 2/30
826/826 [==============================] - 216s 262ms/step - loss: 3.2329 - accuracy: 0.1977 - val_loss: 3.1819 - val_accuracy: 0.2000
…
